DimeNetPlusPlus(
  (rbf): BesselBasisLayer(
    (envelope): Envelope()
  )
  (sbf): SphericalBasisLayer(
    (envelope): Envelope()
  )
  (emb): EmbeddingBlock(
    (emb): Embedding(95, 4)
    (lin_rbf): Linear(in_features=6, out_features=4, bias=True)
    (lin): Linear(in_features=12, out_features=4, bias=True)
  )
  (output_blocks): ModuleList(
    (0): OutputPPBlock(
      (lin_rbf): Linear(in_features=6, out_features=4, bias=False)
      (lin_up): Linear(in_features=4, out_features=4, bias=True)
      (lins): ModuleList()
      (lin): Linear(in_features=4, out_features=1, bias=False)
    )
    (1): OutputPPBlock(
      (lin_rbf): Linear(in_features=6, out_features=4, bias=False)
      (lin_up): Linear(in_features=4, out_features=4, bias=True)
      (lins): ModuleList()
      (lin): Linear(in_features=4, out_features=1, bias=False)
    )
    (2): OutputPPBlock(
      (lin_rbf): Linear(in_features=6, out_features=4, bias=False)
      (lin_up): Linear(in_features=4, out_features=4, bias=True)
      (lins): ModuleList()
      (lin): Linear(in_features=4, out_features=1, bias=False)
    )
    (3): OutputPPBlock(
      (lin_rbf): Linear(in_features=6, out_features=4, bias=False)
      (lin_up): Linear(in_features=4, out_features=4, bias=True)
      (lins): ModuleList()
      (lin): Linear(in_features=4, out_features=1, bias=False)
    )
  )
  (interaction_blocks): ModuleList(
    (0): InteractionPPBlock(
      (lin_rbf): Linear(in_features=6, out_features=4, bias=False)
      (lin_sbf): Linear(in_features=42, out_features=2, bias=False)
      (lin_kj): Linear(in_features=4, out_features=4, bias=True)
      (lin_ji): Linear(in_features=4, out_features=4, bias=True)
      (lin_down): Linear(in_features=4, out_features=2, bias=False)
      (lin_up): Linear(in_features=2, out_features=4, bias=False)
      (layers_before_skip): ModuleList(
        (0): ResidualLayer(
          (lin1): Linear(in_features=4, out_features=4, bias=True)
          (lin2): Linear(in_features=4, out_features=4, bias=True)
        )
      )
      (lin): Linear(in_features=4, out_features=4, bias=True)
      (layers_after_skip): ModuleList(
        (0): ResidualLayer(
          (lin1): Linear(in_features=4, out_features=4, bias=True)
          (lin2): Linear(in_features=4, out_features=4, bias=True)
        )
        (1): ResidualLayer(
          (lin1): Linear(in_features=4, out_features=4, bias=True)
          (lin2): Linear(in_features=4, out_features=4, bias=True)
        )
      )
    )
    (1): InteractionPPBlock(
      (lin_rbf): Linear(in_features=6, out_features=4, bias=False)
      (lin_sbf): Linear(in_features=42, out_features=2, bias=False)
      (lin_kj): Linear(in_features=4, out_features=4, bias=True)
      (lin_ji): Linear(in_features=4, out_features=4, bias=True)
      (lin_down): Linear(in_features=4, out_features=2, bias=False)
      (lin_up): Linear(in_features=2, out_features=4, bias=False)
      (layers_before_skip): ModuleList(
        (0): ResidualLayer(
          (lin1): Linear(in_features=4, out_features=4, bias=True)
          (lin2): Linear(in_features=4, out_features=4, bias=True)
        )
      )
      (lin): Linear(in_features=4, out_features=4, bias=True)
      (layers_after_skip): ModuleList(
        (0): ResidualLayer(
          (lin1): Linear(in_features=4, out_features=4, bias=True)
          (lin2): Linear(in_features=4, out_features=4, bias=True)
        )
        (1): ResidualLayer(
          (lin1): Linear(in_features=4, out_features=4, bias=True)
          (lin2): Linear(in_features=4, out_features=4, bias=True)
        )
      )
    )
    (2): InteractionPPBlock(
      (lin_rbf): Linear(in_features=6, out_features=4, bias=False)
      (lin_sbf): Linear(in_features=42, out_features=2, bias=False)
      (lin_kj): Linear(in_features=4, out_features=4, bias=True)
      (lin_ji): Linear(in_features=4, out_features=4, bias=True)
      (lin_down): Linear(in_features=4, out_features=2, bias=False)
      (lin_up): Linear(in_features=2, out_features=4, bias=False)
      (layers_before_skip): ModuleList(
        (0): ResidualLayer(
          (lin1): Linear(in_features=4, out_features=4, bias=True)
          (lin2): Linear(in_features=4, out_features=4, bias=True)
        )
      )
      (lin): Linear(in_features=4, out_features=4, bias=True)
      (layers_after_skip): ModuleList(
        (0): ResidualLayer(
          (lin1): Linear(in_features=4, out_features=4, bias=True)
          (lin2): Linear(in_features=4, out_features=4, bias=True)
        )
        (1): ResidualLayer(
          (lin1): Linear(in_features=4, out_features=4, bias=True)
          (lin2): Linear(in_features=4, out_features=4, bias=True)
        )
      )
    )
  )
)
#Params: 1570
[Batch(atomic_numbers=[336], batch=[336], cell=[4, 3, 3], cell_offsets=[11926, 3], edge_index=[2, 11926], fixed=[336], force=[336, 3], id=[4], natoms=[4], neighbors=[4], pos=[336, 3], tags=[336], y=[4])]
Memory: 0.485331968
[Batch(atomic_numbers=[155], batch=[155], cell=[4, 3, 3], cell_offsets=[3576, 3], edge_index=[2, 3576], fixed=[155], force=[155, 3], id=[4], natoms=[4], neighbors=[4], pos=[155, 3], tags=[155], y=[4])]
…
